model.pth (torch_old, 142789 bytes, 12 tensors)

weight f4 [6, 1, 4, 4]
00000000: 111c 743e 6336 9b3e 4e86 61be fee8 54be
00000010: 5325 f4bc 3151 113e e3cf 97be 97cd a9be
00000020: a491 673d 8b31 a13e c18b d8bd 989b 1d3e
00000030: 7f1e a73d 36a4 493e 734b a8be 5b5f 02be
00000040: fe3f 363d 7700 743e 04a6 8cbd 8c76 2dbc
00000050: 38a3 7abe 8ace 2c3c 686a 00bd 7bad c9bd
00000060: f289 3a3e a0eb e3be 66a1 4cbe 53cf 69be
00000070: 7cb0 af3a 15fa bd3e 2778 f43d ad34 643e
00000080: 11de 5abd 2872 0b3d 8d83 283d 26c7 fd3d
00000090: f559 823e 1949 643d 3db7 99bd 49c8 c3be
000000a0: 9b18 d2be 765b 5f3e fe5a 5a3e f369 69be
000000b0: 901a ffbe 496c be3d 6871 613e c317 e73c
000000c0: 9d27 b4be 2b4d 94bd 2503 cd3d 2cc6 4e3d
000000d0: d07e aabe 7459 54be ac58 a7be 07ea 96bc
000000e0: 880a b53e b2ae 1a3e 19fd 993e 25f8 363e
000000f0: 0ded fcbd bf5d 4bbd e3bb 0d3e a3bb 583e
00000100: fa76 46be 928a 3ebe 210e e83d f013 71bd
00000110: de6a ca3d 3c7d c43d 8633 9d3d c665 e9bd
00000120: 6075 38bd 4951 6d3d 1de7 a93d f411 353c
00000130: 479d e63d 4f6e 143e dcf9 bcbd d4cd 1b3e
00000140: 0c9c bbbe 6e57 9ebd 9c3b 253e d03c 4d3e
00000150: 124a 36be 4e3d 0cbe 8be7 c83e cb04 353e
00000160: 5236 b6be 9cdd ed3d fb94 80bc 702e 183d
00000170: eae1 51be 1f73 823e 6018 ea3d ae7d 6bbe
0.23838831 0.3031493 -0.2202389 -0.20792004 -0.029802954 0.14191128 -0.29650792 -0.33164665
0.056535378 0.3148311 -0.10573531 0.15391386 0.081601135 0.19691548 -0.32870063 -0.12731688
0.04449462 0.23828302 -0.068676025 -0.010587346 -0.24476326 0.01054729 -0.031351477 -0.09847542
0.18216684 -0.44515705 -0.19983444 -0.22832994 0.0013404037 0.3710486 0.1193698 0.22285719
-0.053434435 0.034044415 0.04114108 0.123915 0.25459257 0.055733774 -0.07505653 -0.38238743
-0.41034397 0.21812233 0.21323773 -0.22794323 -0.49824953 0.092979975 0.22015917 0.028209573
-0.35186473 -0.07241281 0.100103654 0.05048196 -0.33299875 -0.20737249 -0.3268484 -0.01842214
0.35359597 0.15105703 0.3007591 0.17868097 -0.12349901 -0.04964995 0.13841204 0.21165328
-0.19381323 -0.18607548 0.1133082 -0.058856905 0.098836645 0.09594199 0.07675843 -0.11396365
-0.045033813 0.057938848 0.082960345 0.011051644 0.11260467 0.14495204 -0.092273444 0.15215236
-0.36642492 -0.0773152 0.1613602 0.2004273 -0.17801693 -0.13695261 0.39239153 0.1767761
-0.35588318 0.11614534 -0.01569604 0.03715366 -0.20496336 0.25478455 0.114304304 -0.22997162

bias f4 [6]
00000000: cb64 183e 5f59 25be e77b d0be c4b4 f0bd
00000010: 2d50 63bf 6c75 b93d
0.148822 -0.16147374 -0.4071953 -0.11753228 -0.88794214 0.090555996

weight f4 [12, 6, 4, 4]
00000000: eb82 8cbd adf8 85be 61d0 aa3c c8c5 e5bc
00000010: 4d94 26be 3824 71be 3ca7 78bb 3d39 c4bc
00000020: c4ea 313d df7c 4cbe ff18 3fbd 0805 47be
00000030: 2f9f e93d 64fc cabc a130 dcbd f5b2 50be
00000040: 6738 80be 0c1d 17be bba2 e7bd 24eb cebb
00000050: 8855 26be 1894 97be 8066 21be 647f 863c
00000060: c714 4a39 c833 5a3b 735e 453e 2450 1dbd
00000070: e1a2 c53d 3cd7 463e 6ea3 9a3e d872 173e
00000080: 7a28 203d 420a 2d3e 1dd6 9abd ba9a ef3d
00000090: ce08 b9be 1804 30be 39a3 28be 8028 52bc
000000a0: d9c8 d8bd cb00 0f3e e82f 73be 3cba bebc
000000b0: 72dc debc 857f 1dbe a623 f33d 3f52 3dbc
000000c0: a174 ab3d f080 383e bc7a f0bd bc8f 30be
000000d0: aec5 30be 64b0 42bd b79d bdbe 0ae5 2fbe
000000e0: ab3b 9f3e d570 a9bd 9066 8abb 6eb3 f7bd
000000f0: 964d 393e 7e04 1a3e 3498 8e3e 26aa 4b3e
00000100: 9e40 a1be f2f2 78bd 92f5 30bd 66c5 1f3e
00000110: 95fe 23be 1ebe 4ebe d70f 6e3c 1b61 60bc
00000120: 4c40 6d3c f065 dfbd a7f9 e5bc e972 093d
00000130: b02b 313e 8a98 0e3e c4cc eb3c f211 fa3d
00000140: 5762 193e d4cf d1bd 2882 a53c 6e0a e53c
00000150: 0d54 1b3b b577 103e baca 4a3d c9a4 ddbc
00000160: b59b f2bd 904b f63d 153e 8a3d a0b2 e03d
00000170: 8093 b8bd e02a 72be 64bc 0b3e 35af a83d
00000180: 62ca bdbd ef70 87bd af5a aabe 6a8c 023e
00000190: 2b01 88bd 99af f6bc ef8c 97bc d00f e5bd
000001a0: 1457 0ebe 9195 8dbc c1eb e13d ebd1 133e
000001b0: 39f6 e9bd 8d5d 7bbc 4bca a4bd 72c7 abbc
000001c0: 078f adbc f48c 06be 1041 07be 0af8 86bd
000001d0: 185c 38be aa79 92bd 0ce8 d9bd a382 fb3d
000001e0: 1448 a8be 4178 b2be 9369 cfbd 8fa0 f7bd
000001f0: 7481 0d3f ff91 403e fbe3 1b3e 0351 803d
00000200: 9176 82bd 0f59 debe 5e7f 80be 8478 71be
00000210: 521f b6be 5ebb 9bbe 1ec5 e1bd 8b05 e7be
00000220: 67c6 f7bd 43d0 2d3d 292a 4a3d e12e 053d
00000230: 308a 303e 1729 0a3e 9705 663e 48fe b93e
00000240: 7c62 07bd 2ed3 86bc 83b6 c63d bbc0 e2bc
00000250: ab65 1f3d 5022 423d 4380 4c3d dd9a 0f3e
00000260: fa84 43bd 3e31 29bd dc3d 75be 8075 6cbd
00000270: ef5a 9bbe a7e7 f9be baa3 92be 4d95 25bd
00000280: d5d7 263e c69b 0c3e a234 ca3b 74dd f53d
00000290: 14ea d83d 0693 103d 5199 953d b102 2a3e
000002a0: f6e1 d93d cc83 ef3d 4cfe 87bd 95f6 5bba
000002b0: 7db7 b43c b704 5cbe 9b28 bbbd 3ebf 84be
000002c0: b002 35be ab0f a8be d1ad 83be 5556 2cbe
000002d0: f08c 1ebe edad 44be 5c2a 4cbe 63d4 9abd
000002e0: 0074 a43a 8a69 aebe be98 c8be 1874 493e
000002f0: f9ce 823e 543d b23d 9811 723e f4a8 4b3e
00000300: 4638 d23d e39e 373e 32f4 263e ca8d 07bc
00000310: cf04 2c3d 1d89 293e ce2f 3c3e 4242 fe3d
00000320: f043 85bc 956d 023d 11b7 eabd ce97 24bc
00000330: 08f2 b8bd 21e3 fbbd 3342 1bbd d3f5 1dbe
00000340: a643 1ebe 8217 9bbd 4a1e afbd 184f ffbc
00000350: cbb3 8c3d 885c 993c f596 e33d 4066 273e
00000360: a185 d3bc afc9 ed3d 947a 92bd 5311 8c3d
00000370: caf9 8d3e 55cb 293e aca0 e1bc 3f56 20be
00000380: 5ecf 07be 36f9 803e 6c1f 283d b08e 453e
00000390: 8ce0 183e e28f ad3e 8a3c 9a3e 9533 d33d
000003a0: 9917 b9bd f264 f9bd eb04 093e 86df c83d
000003b0: 2cdc d23d 1bed bb3d 7e23 49bc b2da a1bd
000003c0: 5f34 a4bd 3a25 6f3d 0827 823c 84fe 94be
000003d0: ea49 36be f6f2 c6be 8aee e3be 045e d3be
000003e0: 76b3 88be bae1 4cbd e64a cdbd d21a e7bc
000003f0: b515 213e 0087 3abe dd26 86bd a6b2 40be
-0.06860908 -0.26166287 0.020851316 -0.028048411 -0.1626751 -0.23548973 -0.0037941476 -0.023953075
0.04343678 -0.1996951 -0.046654698 -0.19435513 0.11407315 -0.024778552 -0.10751463 -0.20380767
-0.25043032 -0.14757174 -0.11310335 -0.006314652 -0.16243565 -0.29605174 -0.15761757 0.016418166
0.00019271961 0.0033295024 0.19274311 -0.038406506 0.09650207 0.19418043 0.30202812 0.14789903
0.0391011 0.16898444 -0.0756037 0.116994336 -0.3613953 -0.17189062 -0.16468515 -0.012827039
-0.10585184 0.13965146 -0.23748744 -0.023282163 -0.027204726 -0.15380676 0.11872034 -0.0115552535
0.083718546 0.18017936 -0.1174216 -0.1724233 -0.17262909 -0.0475315 -0.3703439 -0.17177215
0.3110021 -0.08273474 -0.004223652 -0.1209477 0.18096003 0.15040776 0.27850497 0.19889125
-0.31494612 -0.060778566 -0.043202944 0.15602645 -0.16015084 -0.20189711 0.014530144 -0.013695027
0.014480662 -0.10908115 -0.028073145 0.033556852 0.17301822 0.13925377 0.028784163 0.12210454
0.1497892 -0.10244718 0.020203665 0.027959075 0.0023701221 0.14108165 0.04950974 -0.027056115
-0.11846105 0.12026131 0.067501225 0.1097157 -0.090125084 -0.23649168 0.13646084 0.08236543
-0.09267117 -0.06613337 -0.3327231 0.12748876 -0.06640848 -0.030113028 -0.01849982 -0.111846566
-0.13900405 -0.017283233 0.110312946 0.14435546 -0.11423916 -0.015342128 -0.08046397 -0.020969126
-0.021186365 -0.13139707 -0.13208413 -0.065902784 -0.18003881 -0.07152112 -0.106399626 0.12280776
-0.3286749 -0.3485737 -0.101275586 -0.12091171 0.55275655 0.18805693 0.15223686 0.06265452
-0.06370271 -0.4342732 -0.25097173 -0.2358113 -0.3557077 -0.30416387 -0.11023925 -0.45121416
-0.12098389 0.042434942 0.049356613 0.03251541 0.17240214 0.13492237 0.2246307 0.36326814
-0.033052906 -0.01645812 0.0970278 -0.027679792 0.038915318 0.047396004 0.049927007 0.1402392
-0.04773424 -0.041306727 -0.23949379 -0.057729244 -0.30342814 -0.4880955 -0.28640538 -0.040425587
0.16293271 0.13731298 0.006170825 0.120051295 0.10591522 0.035296462 0.073046334 0.16602589
0.10638802 0.1169506 -0.066403 -0.00083909306 0.02206015 -0.21486174 -0.09138604 -0.25927156
-0.17676806 -0.32824454 -0.2571855 -0.16829808 -0.15483451 -0.19206972 -0.19938034 -0.07560041
0.0012546778 -0.34064895 -0.39179033 0.19673193 0.25548533 0.08703104 0.23639524 0.19888669
0.102646396 0.17931704 0.1630409 -0.008273551 0.041996773 0.16556211 0.18377611 0.124149814
-0.016267747 0.031842787 -0.114606984 -0.010045959 -0.09030539 -0.12299181 -0.03790493 -0.15425806
-0.15455493 -0.07572843 -0.08550699 -0.031165645 0.0687023 0.01872088 0.11112777 0.16347599
-0.025820555 0.11610734 -0.07152286 0.06839242 0.27729636 0.16581471 -0.027542435 -0.156579
-0.13262698 0.25190133 0.04104559 0.19292712 0.14929408 0.33898836 0.30124313 0.10312573
-0.09037704 -0.12177457 0.13380782 0.09808259 0.10295901 0.09176084 -0.012276528 -0.07903041
-0.080178015 0.05838511 0.015887752 -0.2910043 -0.17801633 -0.3885724 -0.44517928 -0.41282666
-0.26699418 -0.050019957 -0.10024051 -0.028211031 0.15730937 -0.18215561 -0.06550381 -0.18818149

bias f4 [12]
00000000: 1ffd 283e d8e1 223e 8319 ed3d a738 533e
00000010: 596e ba3e c40c 813e c3f4 f43d 14f4 c7bd
00000020: ded4 4ebb c191 13bf e7a9 5b3e 4f8d 14bf
0.16502808 0.15906465 0.115771316 0.2062708 0.36412314 0.25205052 0.11960747 -0.09763351
-0.0031559984 -0.5764428 0.21451531 -0.5802812

weight f4 [120, 192]
00000000: d6f7 43bd 0a24 5b3d a3b3 9ebd a5e9 bf3d
00000010: bf21 373e c238 db3b bf39 4bbc 1327 bd3d
00000020: 8afd 7e3d d067 c9bd 0b10 cfbd 831a 803d
00000030: 5173 1cbe 75e6 d9bd 5452 ee3c 265f a9bd
00000040: 5d0f 043e 22ff 6ebe e040 47be 34f2 b9bd
00000050: fe87 a53d 1419 d4bb faaa 253d bc95 bebe
00000060: 3100 64bd 90e8 1dbe 4469 efba ad04 27be
00000070: 2b39 803d 1c2d 8dbe d9af bdbd 913f d0bd
00000080: eb2f cabc 6f0d 9c3c b8d5 333e 5b18 533e
00000090: 8260 963e 055f 713e 775c ba3e 1b41 563d
000000a0: b61a f73d 91bd 143e c9f1 363e 6719 633e
000000b0: e2a0 04bc 0265 a6bd f06d 113e 1d5c f53d
000000c0: 4455 603e 92f1 a63d b4ec 87bb 20f5 0fbe
000000d0: b52b 963d e42d 2a3d a7fc 233e 15a7 8ebd
000000e0: 6fda 013d 4ae4 13be 2b7f cabd 2b62 233d
000000f0: 9db9 843d d9cf 2cbe 4e9b 63be a588 2f3d
00000100: 2540 4abe e80e 223d 23d5 8dbe f806 a63d
00000110: 38ee 803c 697a c53d 60a3 64be dfee 24be
00000120: 3b5f 933d 8693 c53d f869 753c f481 2bbe
00000130: a101 b1bd 0cc9 12be 01a8 8c3e 9302 f93d
00000140: c0e0 0cbe 8896 a1bd f43d 15bd 4285 9ebe
00000150: e730 e6bd b3c9 7dbd f0e5 523d c991 e43b
00000160: cd42 27be d3b3 49be 3e4a 0c3e 3cbd dbbd
00000170: cbc3 aebd fb4f 9a3d bff5 d73d f093 9f3d
00000180: decb 77be fd20 03be 0242 14be 0daa 053e
00000190: d0c9 153e 97c5 113d 6e5d a7be 449d 33bd
000001a0: 2a4e 693c b161 81be 19c3 e7be 0c50 c4be
000001b0: 9af9 233d fb8e 273e dcbc c43d d86f ad3c
000001c0: de0b 533e ec93 763d 7ab4 4cbd 49d0 863d
000001d0: f675 563e ef04 cbbd 2809 cabd 7615 dc3d
000001e0: f9ee 59bd 539f 53be ede4 593d 0923 7d3e
000001f0: 3ab5 0ebe 89ee ca3b be59 853d 24e1 cd3d
00000200: 45d4 6ebd 5ce9 3f3e 421a 0abd bc99 643d
00000210: 6bc3 c4be b84c d4bd 1250 f8bb 6d5d 083e
00000220: 35ca 78be 8948 eb3c 9dcb d03d f61a 963d
00000230: d077 8bbe 8101 84bd 2b45 8e3d d5b2 2c3e
00000240: 8af0 3abe a3d8 77bd 0631 75bd a859 00be
00000250: 89d4 4bbe a557 b53d 0dd3 f53d 5d93 3abe
00000260: 6b4e 61be 9eb9 ceba 7f4d 6bbd 3969 77be
00000270: ea99 9bbd 428e 95bd 7446 ffbd fe30 6cbc
00000280: 55d5 9b3e 7842 48bd c864 39bd cbff 90bd
00000290: 82b0 eebd 198a f23d 3328 db3e e455 c53e
000002a0: 6cb2 9ebc a73a 093e e01c 913e 0fc8 5d3e
000002b0: 7d2d ba3d a7bf 283e b96a fd3c ad43 f2bc
000002c0: 86dd 6bbd f92a 5ebc 9955 4bbe 6a62 ffbc
000002d0: dd8f 9b3d d44b 8abc 9f4c 14be f0aa 80be
000002e0: 4831 b8bd 9c52 d8bd dc82 acbe 746d 85be
000002f0: 2792 c13c a986 193d 632d 11be 4092 a0ba
00000300: ad09 013e 4266 813e b321 2f3d 2afd e9bd
00000310: 99a5 49be 0955 433d fe70 fabd efdd 4ebd
00000320: db4b 45be 046f 12be 4109 57bd 17a2 283e
00000330: 14b3 aabd fcca 02bd d8e7 28be c7a5 0d3c
00000340: b49b 1fbd b68a 943d f866 793d 962c 063c
00000350: c94b 843d f4f7 db3d fa6b 66bd 28ed ca3d
00000360: c7b6 ffbd d223 e93c bef0 763d 51b8 df3d
00000370: 74a7 143e 4445 353e 3031 fb3d 64c7 433d
00000380: 7b22 9abe 99a7 0dbe a547 43be 65a4 253e
00000390: 9d22 21be b4f1 7abd 3d2f 203d 38f9 623d
000003a0: 7e63 23be 413a 9e3d 358b cd3c 8eec 6ebe
000003b0: 419a 9cbe aef5 523d 45c1 813c 5c46 d83d
000003c0: 71a1 9fbe 6c96 833c f438 c0bd 9e04 17be
000003d0: 55cd 1fbe 3747 323e a05c 0d3d b4d1 82bd
000003e0: 3130 af3c 0bba f23d f269 f43d 7cd3 1dbe
000003f0: fb6c 9b3d 568d ee3d e02f 7c3e a84f 2a3d
-0.047843777 0.053501166 -0.07749107 0.09370736 0.17883967 0.0066901157 -0.012403904 0.092359684
0.062253512 -0.09834254 -0.10110482 0.06255057 -0.15278365 -0.10639659 0.029091991 -0.08270101
0.12896486 -0.23339513 -0.19458342 -0.090794 0.08082579 -0.006472716 0.04044626 -0.37223613
-0.055664245 -0.15420747 -0.0018265625 -0.16310377 0.06260904 -0.27573478 -0.09262056 -0.10168374
-0.024681052 0.019049374 0.17561996 0.2061476 0.29370505 0.23571403 0.3639867 0.052308183
0.120656416 0.14525439 0.17865671 0.22177659 -0.008094998 -0.081247345 0.14202094 0.1198046
0.21907526 0.08151545 -0.0041480903 -0.14058352 0.07332555 0.04154767 0.16014348 -0.06965462
0.031702455 -0.14442554 -0.098875366 0.039888542 0.064807154 -0.16876163 -0.22227213 0.042854924
-0.19751032 0.039564997 -0.27701673 0.08106798 0.015738592 0.096424885 -0.22327948 -0.16106747
0.07195898 0.096472785 0.014978878 -0.16748792 -0.08642889 -0.14334506 0.27471927 0.12158694
-0.1375761 -0.0789004 -0.036436036 -0.30961043 -0.11239796 -0.061959933 0.051488817 0.0069753868
-0.16334076 -0.19697504 0.13700196 -0.10729453 -0.08533438 0.07534786 0.10544919 0.07791889
-0.24198863 -0.12805553 -0.14478305 0.1305315 0.14627767 0.035588827 -0.3268847 -0.043851152
0.014239827 -0.25269845 -0.45266035 -0.3834232 0.04003296 0.16363136 0.096063346 0.021171495
0.20609996 0.060199663 -0.049976803 0.06582696 0.20943436 -0.099130504 -0.09865028 0.10746281
-0.053206418 -0.20666246 0.053196836 0.24720396 -0.1393632 0.0061929864 0.065112576 0.10052708
-0.058307905 0.18741363 -0.033716448 0.055810675 -0.38430342 -0.103661954 -0.0075779045 0.13316889
-0.24295886 0.02872111 0.10195086 0.07329361 -0.27239847 -0.06445599 0.069467865 0.16865094
-0.18255821 -0.060509335 -0.059861206 -0.12534201 -0.19905294 0.088546075 0.12003145 -0.18220277
-0.2200257 -0.0015771871 -0.057446953 -0.24161233 -0.07597716 -0.07302524 -0.1246461 -0.0144159775
0.30436197 -0.048891515 -0.045262128 -0.07080039 -0.1165476 0.11842746 0.42804107 0.38542092
-0.019372188 0.1340128 0.28342342 0.21658348 0.090907075 0.1647936 0.030934678 -0.029573286
-0.057584308 -0.01356005 -0.19856872 -0.031174857 0.07595799 -0.01688186 -0.14482354 -0.25130415
-0.08993775 -0.105626315 -0.33693588 -0.2606007 0.023629261 0.037481938 -0.1417747 -0.0012250617
0.12601347 0.2527333 0.042756747 -0.1142524 -0.19692077 0.047688518 -0.12228583 -0.05050462
-0.19267218 -0.14300162 -0.05249906 0.16468082 -0.08334938 -0.031931862 -0.16494691 0.008645481
-0.03896685 0.072530195 0.060889214 0.008189341 0.06459767 0.10740653 -0.05625532 0.09908515
-0.12486034 0.028459463 0.060288183 0.109238274 0.14517003 0.17702204 0.12265241 0.047797576
-0.30104432 -0.13833465 -0.19070299 0.16175993 -0.1573586 -0.061265662 0.03910755 0.055413455
-0.15955922 0.07725955 0.025090793 -0.23332426 -0.30586436 0.05150383 0.015839228 0.10560295
-0.31177858 0.016062938 -0.09385863 -0.14747855 -0.15605672 0.17409979 0.034512162 -0.06387654
0.021385284 0.11851891 0.1193427 -0.15412706 0.07589146 0.116480514 0.24627638 0.041579872

bias f4 [120]
00000000: 5b78 80bd 585b 8fbd b19e 25be 43eb edbd
00000010: 0b40 d83d 379e 3cbe 0c03 933c 8035 41be
00000020: 31d7 af3d b76e 9dbd c5af b9bd bd3c 5dbe
00000030: 9e76 d0bb b4e7 453e 6521 d5bc 0fc0 77bd
00000040: 9f7b f83c aa75 07be 53d4 43bd 1773 a73d
00000050: c113 76bd cc95 573d c9a3 a03e 0422 8fbc
00000060: af9a 3c3d 6aec 28bd 2573 18be fdaa 793d
00000070: 6646 c2bd a6c0 03bc 9e99 bab8 4d0e 243d
00000080: eee2 05be 573b abbb 9b39 f4bc bd45 99bc
00000090: 31ef 89bd d501 c93c dc34 0e3d d484 d0bd
000000a0: d794 44bc d394 2f3e ea36 16be 7deb 8abe
000000b0: fb0a 863d 2fed 223d fa0f 8e3d 6dd4 e5bd
000000c0: e394 f7bd 872d 6bbd 7aca a6bc 7317 813e
000000d0: 5c3d b7bd a0a8 2f3e 0d54 95bd 2f66 8fbc
000000e0: 0658 3c3e 0cd1 15be 7813 693d e93a c4bd
000000f0: 8860 da3d 775b 84be 5614 a3bd a0c1 61bd
00000100: 106c 34bd 0557 403e 74b9 bdbd 6810 683d
00000110: 0d6b 9bbe 887f 98be cb98 4fbd dccf b33d
00000120: 69e2 28bd 85db 53be 2fed e7bd 5db7 423d
00000130: 5cc0 4dbe a54e 0dbe ca4a 213d ace8 03be
00000140: fcc7 8ebc 1ee3 44bd d6b6 16be d4b9 873d
00000150: c04c 853d 00a8 c2bd 8dbf f53d 0f92 cfbb
00000160: e33c 24bd 718d 373c 8e4c 6b3d 2c12 7abe
00000170: ddfd 303e 0ca3 213e 7008 143d 4d50 b03d
00000180: 0779 8a3e 1575 a5bd 76ff 13be 4eff f03c
00000190: 6add 83bd 0171 e9bd bdb2 d0bd 72f3 eabc
000001a0: d9a0 2bbd d71c 3c3e c7db a4bc e603 043d
000001b0: 7402 29be 095a c23d 49b0 643c e6fb ec3d
000001c0: cb39 cdbd 9525 743e 8bfa a2bc 94bc b1ba
000001d0: be54 433c 4497 a8bd 9b4d c7bd 10f4 2fbe
-0.06272956 -0.06999844 -0.16173817 -0.11617138 0.1055909 -0.18419729 0.017945789 -0.18868065
0.085859664 -0.07687133 -0.090667285 -0.21605201 -0.0063617965 0.19326669 -0.0260169 -0.060485896
0.030332385 -0.13228479 -0.04780991 0.081762485 -0.060077433 0.05263309 0.31374958 -0.017472275
0.046045955 -0.041241087 -0.14887674 0.060954083 -0.09486084 -0.008041536 -8.8977846e-05 0.0400527
-0.13074848 -0.0052255797 -0.029812625 -0.018710012 -0.06735075 0.024537006 0.03471838 -0.10181585
-0.011998377 0.17146616 -0.14669386 -0.27132788 0.06545063 0.039776977 0.06936641 -0.112221576
-0.12088945 -0.057416465 -0.02036022 0.25213203 -0.0894725 0.17154169 -0.07291422 -0.01750478
0.18392953 -0.14630526 0.056903332 -0.09581549 0.10662943 -0.25851032 -0.07962863 -0.055116296
-0.04404837 0.18783195 -0.09263888 0.05665627 -0.3035511 -0.297848 -0.050682824 0.087798804
-0.041231547 -0.20689209 -0.11324536 0.04753815 -0.2009291 -0.13799532 0.039377965 -0.12881726
-0.017429344 -0.04806816 -0.14718184 0.06627241 0.065087795 -0.095047 0.11999426 -0.00633455
-0.04009713 0.011203156 0.057446055 -0.24420995 0.17284341 0.15784854 0.03614086 0.08609066
0.27045462 -0.08078972 -0.1445292 0.029418614 -0.06438716 -0.11398507 -0.101903416 -0.028680537
-0.041901443 0.18370377 -0.02012433 0.03223028 -0.16504842 0.09489829 0.013958045 0.11571483
-0.10020789 0.23842461 -0.019894859 -0.0013560229 0.01192206 -0.08231977 -0.09731599 -0.17182946

weight f4 [60, 120]
00000000: 544d 0fbe 04cf 853c 9446 3ebe f9ea 8e3e
00000010: e705 2b3c 9b82 8f3c 5800 203e db49 2b3e
00000020: 684c b0be 0396 be3d 7114 06be 7b76 95be
00000030: ed03 8d3d f0a2 a83d d07e 2abe a6d8 26be
00000040: 8112 13be b36d 34be c4f7 15be 12c7 503d
00000050: 6750 f1bc 4d59 bb3d 50d6 a13d 6c0d f23c
00000060: b9fb dc3d 94d0 843e ece1 173d 9589 5d3e
00000070: 3c31 f23d c9ff c33d 16e4 213e e92a e6bd
00000080: fea0 a8bd 74b6 923e 816d ddbb 6ae0 d23d
00000090: 0f50 0bbe 5f72 3c3d 1dbb cc3d 8866 f2bb
000000a0: 6f09 8fbc 75d2 31be a9ad 40be c135 bb3d
000000b0: 9515 883c e419 443e ca53 2f3d 9ce7 b2bd
000000c0: d7fc c03c 6da9 0cbe a124 cabd 9544 ad3d
000000d0: 73b9 623e 5089 8d3e dead eb3c d0b0 173d
000000e0: 8788 8ebd c495 54be 6740 813e aba4 c53d
000000f0: 6088 24be 3235 463d 415e cb3c d51a a4bd
00000100: 1deb 04bd 4c6b c1bd c52a 323e 5177 713d
00000110: e86c e4bd 5354 2bbd b061 55bc ea9a 3dbe
00000120: 9c42 963d 5ec3 7ebd a063 77bd 5750 81bb
00000130: 2d1a 48be 8622 ecbd 1782 12be f006 43be
00000140: ec58 ae3c 79ef dabd 3607 913d 96dc 98be
00000150: c146 1fbd 6c28 b9be 4620 07bc 7ddd 1a3e
00000160: ce62 ed3d d2d6 2a3d 37e6 ecbd 3020 f1bd
00000170: cb49 95bd edc3 523e 2b84 233d 261d b33d
00000180: 0d49 b83d 10d5 e43b eb41 39b8 1dcf 303e
00000190: 77bd 24be 9816 b93c 61b5 22be f4f0 4a3d
000001a0: bd45 debd 009e 32be 64b7 66be da85 6639
000001b0: 6f84 ffbd a1f0 87be a2e2 133e 8951 033e
000001c0: c155 6dbe f14e 54be 873f a6be 9574 2dbe
000001d0: 89b5 cc3d affd 95be 3878 d93d e1f9 6c3c
000001e0: 9420 8d3e 445e 16be a0cb 58bd 2476 d2bc
000001f0: f0b2 f3bd a33a 11bc fca4 9d3d 5991 c7bd
00000200: 3393 7e3d 6614 003d e0f3 cabd 63e4 51bd
00000210: 1b60 19be 8851 4f3e c690 0b3d 948f 903d
00000220: 6c79 b83c 3550 d5bd a2c4 a93e 8e20 0dbe
00000230: fba2 e73d d97f b63c 040f 013e 9602 51bd
00000240: 4a2b 2abe e789 f9bb 3661 c93e 2a7e c33d
00000250: 7e86 a8bc f88e 0abc add5 cabd 1ceb ca3c
00000260: cd07 e0bd 75ab d43d 94c2 1bbe 61ec 683c
00000270: 4479 993d 688f 9cbd 1b4b 7d3b beff f4bc
00000280: 38de 723d a1f6 e43c be0b a33d 395b abbd
00000290: 61e9 2ebd 0b09 e63c d313 d23d 14b0 ab3c
000002a0: cdd6 46be 122f 74bc fb48 78bd b212 703d
000002b0: a2ca 5bbe de16 2dbd 57a1 5abe 1b1d 77bd
000002c0: d0ba f0bc e649 003e c205 a2bc 75ed 81bd
000002d0: f425 a93e 6eec 7cbd 21a3 cabb 3dcc e33c
000002e0: 8371 93bc 45f8 103e 7d84 43be bb92 9a3e
000002f0: 8c0b 8abc e829 03bd 41e0 2c3a a083 0e3e
00000300: f3f8 723e 0c63 2cbd c688 05bd 164c 8f3d
00000310: a41f abbd 8fe8 15be 2659 26bc e944 abbd
00000320: d102 783d abee 74bb f986 c0bd f9e6 cbbc
00000330: b90c 413c fda6 3a3e 8fd9 0fbe f1f2 733b
00000340: 1714 ef3c b1bc d1be 2e21 ad3d ac18 f9bd
00000350: d323 ae3d 13ac 113d 8a46 b13d 0fed 0fbd
00000360: cd80 053c db83 903d 2826 76be 1879 5dbd
00000370: ca5e 16bd 4377 33bd ee02 fd3d f7f3 99bc
00000380: 5674 0abd 0d3e 69bd 42e9 12be fc54 a23d
00000390: 4ba6 b63c 9cfa ad3d f7a9 4bbd 52b1 283d
000003a0: c546 40bb dda0 003c e9d5 82bd c24d 0fbd
000003b0: db66 27bd 1fb4 21be 6763 3b3d 27a4 82bd
000003c0: 3e2c c8bd a99f cd3d 87c3 8dbc 7f46 f33d
000003d0: 8ad4 a73d 1ce7 9dbd 26b3 b7bd c013 f13c
000003e0: a4eb 753d 5668 9ebc 6451 febb d442 56be
000003f0: cf4f bcbe a27c 843d fe25 ddbd c4b5 17be
-0.13994342 0.016334064 -0.18581611 0.27913645 0.010438419 0.017518332 0.15625131 0.16727392
-0.34433293 0.09305956 -0.13093735 -0.29191956 0.068855144 0.08234203 -0.16649938 -0.16293582
-0.14362527 -0.17619972 -0.14645296 0.0509711 -0.029457284 0.09147892 0.07902205 0.029547416
0.107902 0.25940382 0.03708069 0.21634515 0.11825797 0.095702715 0.15809664 -0.11238653
-0.08233832 0.28654826 -0.0067574386 0.1029671 -0.13604759 0.04600751 0.099966265 -0.0073974766
-0.017460553 -0.17365439 -0.18816246 0.09141112 0.016611854 0.19150501 0.042804517 -0.08735582
0.023558063 -0.13736506 -0.09870268 0.084603466 0.22141056 0.27643824 0.02876943 0.037033856
-0.06959634 -0.20760256 0.25244448 0.096505485 -0.16067648 0.048390575 0.024825217 -0.0801293
-0.032450784 -0.094442934 0.17399128 0.05895168 -0.11153585 -0.041828465 -0.013023779 -0.18516126
0.073369235 -0.062198035 -0.060397744 -0.003946345 -0.19541235 -0.11530022 -0.14307438 -0.19045615
0.021282636 -0.10690207 0.070814535 -0.29855794 -0.038885836 -0.36163652 -0.008247441 0.15123554
0.11591111 0.041708775 -0.115673475 -0.117737174 -0.072894655 0.20582552 0.039920967 0.08745794
0.08998308 0.006983407 -4.4168828e-05 0.17266507 -0.160879 0.022593781 -0.15889503 0.049546197
-0.10853145 -0.17443085 -0.22530895 0.00021984373 -0.124764316 -0.26550773 0.14441922 0.12824072
-0.23177244 -0.20733239 -0.32470343 -0.16939004 0.099955626 -0.29295108 0.10618633 0.014463873
0.27563918 -0.14684397 -0.052928567 -0.0256911 -0.11899364 -0.008864078 0.07697484 -0.0974452
0.0621521 0.031269453 -0.09909797 -0.051243197 -0.14978068 0.20245945 0.034073614 0.07058635
0.022518836 -0.10415689 0.3315783 -0.1378195 0.11310383 0.02227776 0.12603384 -0.051027857
-0.16618076 -0.007615316 0.3933198 0.09545548 -0.020571943 -0.008456938 -0.09904037 0.024770312
-0.10938988 0.10384265 -0.15210944 0.014216513 0.07493833 -0.0764454 0.0038649503 -0.029907104
0.059293956 0.027949633 0.07961224 -0.08367009 -0.042703036 0.028080484 0.102576874 0.020957984
-0.19417877 -0.014903801 -0.060616475 0.05861158 -0.21464017 -0.042258136 -0.21350609 -0.06033049
-0.029385954 0.1252819 -0.019778136 -0.063441195 0.33036768 -0.061748914 -0.0061839973 0.02780735
-0.017998463 0.14157207 -0.19093509 0.3019007 -0.01685121 -0.032022387 0.0006594696 0.13917398
0.23727779 -0.042086646 -0.03260114 0.06996934 -0.08355644 -0.14639495 -0.010153091 -0.08362753
0.06054956 -0.0037373703 -0.09400744 -0.02489041 0.0117828185 0.18227763 -0.14047836 0.0037223662
0.029184384 -0.40964273 0.08453594 -0.12162909 0.08502927 0.035564493 0.086560324 -0.035138186
0.008148384 0.070563994 -0.24037993 -0.054070562 -0.03671149 -0.04381491 0.123540744 -0.01879309
-0.033802353 -0.05694394 -0.14346793 0.07926366 0.022296092 0.084950656 -0.049722638 0.04118473
-0.0029339057 0.007850853 -0.063884564 -0.034986265 -0.040869575 -0.15791367 0.045749094 -0.06378966
-0.097740635 0.100402184 -0.017305149 0.118786804 0.081948355 -0.07710096 -0.08969717 0.029428363
0.060039178 -0.01933686 -0.0077611674 -0.2092393 -0.3677964 0.06469084 -0.10798262 -0.14815432

bias f4 [60]
00000000: f295 f53b 2a76 833e d33c 7abd a4b6 acbd
00000010: 032f fe3d 59b3 8fbd 75c6 c53c 8a65 a1bd
00000020: e31b 31be a263 5fbe 2857 d5bd 2f1f 2ebe
00000030: b90d f63d 9d6e e23d b6b8 c8bd 3797 47bd
00000040: 2e07 b8bd 66a8 4e3b 6f5d 8d3d 89e6 463e
00000050: 33e0 193c 6857 03be b88f 3e3c 1491 33be
00000060: 7e68 803d e1a4 7e3c 8c7c 213e c9f9 bbbd
00000070: d91e e63c 92f2 353d 1e20 1ebe c08f 47be
00000080: 78cb 8cbe a6ab 53be acad 30be e098 42be
00000090: 4e59 24be 4edd bb3d 6f45 19be 0cc3 24be
000000a0: e2ea 79bd cc98 37be 423a 733d 3fa6 5d3e
000000b0: 1a65 2dbd 8fd7 d23e 3d67 e63e 2056 783d
000000c0: aa22 f83d 70ee bcbd fc51 a8bd 3b44 583c
000000d0: b8cd 61bb a906 bd3d 986a 513e b580 4ebe
000000e0: ca1c ab3d f5d5 43be 0633 553d 8f03 953d
0.0074946815 0.2567609 -0.061093163 -0.084332734 0.124113105 -0.0701663 0.024142483 -0.07880695
-0.17295794 -0.2181535 -0.10417014 -0.17004083 0.12014336 0.11056254 -0.09800856 -0.048728194
-0.089857444 0.0031533479 0.06902587 0.1942388 0.009391832 -0.12826312 0.011630945 -0.17535812
0.0626993 0.01554224 0.15770167 -0.09178502 0.028090881 0.044420786 -0.15441939 -0.1948843
-0.27498984 -0.20670947 -0.1725375 -0.1900363 -0.16049692 0.0917307 -0.14967893 -0.1609003
-0.061015017 -0.17929381 0.05938173 0.21645449 -0.042332746 0.41180083 0.4500064 0.06062901
0.12115987 -0.09225166 -0.08218762 0.013199861 -0.0034454893 0.09229786 0.20450819 -0.20166285
0.083551005 -0.19124587 0.052050613 0.072760694

weight f4 [10, 60]
00000000: 8870 bb3d 2a87 09bd 2322 d1be 4e40 3a3e
00000010: 1f0f 2f3e 4f26 2fbc 6572 603c f241 98be
00000020: 09ec a13c 4802 763b c018 ca3c 27a2 0bbe
00000030: f66c 33be de87 cbbd 2ee6 8bbd 0ccf 0d3d
00000040: a28d 513e 0e3d 9abe c9c0 bbbd c252 c63d
00000050: f3bf 043e a24f 02be d1bb bfbd 138c a23b
00000060: 56eb 453e 3162 5cbe 6770 e33d 0e74 063d
00000070: b3d6 a6be 270a 66be 13c9 b83d ab29 0fbe
00000080: 88d7 a8bd 3e9c d93d f3fc 0f3e 84e6 7439
00000090: aa80 b6bd b046 163e 5f03 17be 4577 363e
000000a0: 174d 4b3e bf77 013e 1a61 993d d934 84be
000000b0: 12a0 27be faa4 7c3d e89c d63d 200d 34be
000000c0: df18 8c3e bcc0 8a3e 9a08 183d aeff 923e
000000d0: 2b61 2a3e 84d1 86be 53e6 843e 3035 73be
000000e0: 4553 d8bd 694f 4d3e 9ea3 373d e504 b6bd
000000f0: b3fc 91bd 6d52 adbd 1f60 e7bc d0d7 063b
00000100: a22c a1bd 63da 833b 71ad 8a3e 1e3b 973e
00000110: 2529 5b3e 1be7 3bbe 089e 31be dc4e 173e
00000120: a764 b5bd 0461 f23d 62fc edbd 217f 19be
00000130: 3176 41bc b9c0 a93b fb07 1cbe e3a8 b8bd
00000140: d815 273e fc06 b33d 0e0c 56be 6c6d ca3d
00000150: e2d3 9eb9 6958 0cbe 56a8 cdbd b0a4 8cbd
00000160: ce2b 273e c599 2dbc 5b8a e73c 26bf 92be
00000170: 177d 82bc e2a1 3abe 6772 8f3d ba4b 19be
00000180: 5d61 70be a479 6fbe e1fd 563e 1317 a03e
00000190: 1a4a 1dbe b177 253d d93a eebd f4b8 0abe
000001a0: 3fa7 a23d 31c1 04be 1673 8fbd 13dd 8fbd
000001b0: 05d1 bd3d ef34 fdbd 5545 af3d 361a 9b3d
000001c0: fd99 f83d ad99 083d 07d7 06bf df64 54bd
000001d0: e347 ebbd 0aa7 9cbd 8b91 7fbe 8132 2b3e
000001e0: a535 c6bd bad9 69bd e2e0 edbd 02ba dabd
000001f0: fc23 13bd 32df 06be d651 c7bd 1235 11be
00000200: cc79 a33c c738 dc3d 9343 8fbc dac6 22be
00000210: 3e53 32be de03 0abe eb92 51be 3434 123d
00000220: 3a3b 143e b9c2 97be 8f2c 66ba 218f bf3d
00000230: ee24 a33b 1a2d e63d c674 32be ac4f aebc
00000240: 5525 153c c1cd 4cbe ca74 12be d955 883d
00000250: c06a 95bd c2b5 e1bd 1789 323a fe13 b53b
00000260: 7b85 28be 4494 8a3d 9e28 bbbd bfb9 ddbd
00000270: 9b1c eebd b186 3bbc 11bd e0bd a314 193e
00000280: 969a 0f3d 4248 023e 6562 94bd 3ce7 f0bd
00000290: c9eb 15be 17bc ddbb 4363 3abd fa1d b1bd
000002a0: f163 ecb9 8a5d 973d 9f93 f23c 9e13 c13d
000002b0: ebe7 9cbc 5655 a1bd 3499 ca3c e42e a9bd
000002c0: 67ed 083d fd1e 893a f966 e93d 1bfa 35bd
000002d0: 2340 933e 10e5 aabd 49ef eb3d b22e d83d
000002e0: be10 d93c 7674 66be 2e45 4fbe 9de0 32be
000002f0: b982 88be fb2d cdbc 1d9e 723e 8e96 153c
00000300: 8dd5 4bbd 7978 2cbe 9bb8 25be 3d17 fb3b
00000310: a782 1cbd 5dc6 a0be 32d8 98bd b765 c93d
00000320: 012b 59be 1400 773e 0acd 09be 6f40 bebd
00000330: 9484 75be ecb0 bcbd 558e 9dbd d789 7f3d
00000340: 2129 e4bd 5963 79be fecf 613e 6ebf f63d
00000350: f4c0 913d a093 e9bd f8ae 563e 206b 0a3e
00000360: 59bd 94bd 51eb a7bd 9167 edbb b6e2 813d
00000370: 4761 133e c998 ad3d 9b7d 3e3e 18a2 0fbe
00000380: 29e8 44be 1e78 3abd 671e a1bd 1c06 95be
00000390: bcb0 0fbd c2b3 993d e358 51be 1572 9bbd
000003a0: 7cd7 e7bd a824 44be ab83 b0bd 3ff3 8cbd
000003b0: 53c9 79bc 79d7 b03e 7213 803e a2ef 8bbe
000003c0: 4f08 36be 5a24 80be 53bd ebbd 5e88 303e
000003d0: 903d 343e d232 54be 52b4 14be d865 4cbe
000003e0: 8936 ec3a 3b7b 133e 98c8 5fbd 4058 8bbd
000003f0: a7c7 73be 15d5 0abb ecd2 4fbe 649b 80bd
0.09152323 -0.033576168 -0.40846357 0.18188593 0.17095612 -0.010690286 0.013699149 -0.29737812
0.01976587 0.003753798 0.024670005 -0.13636075 -0.17522034 -0.09938024 -0.06831013 0.034621283
0.20464185 -0.30124706 -0.0916763 0.096837536 0.12963848 -0.1272569 -0.09361995 0.004960546
0.19328055 -0.21521832 0.111054234 0.032825522 -0.32585678 -0.2246481 0.09022727 -0.13980739
-0.08244234 0.10625504 0.14061336 0.00023355527 -0.089112595 0.14675403 -0.1474738 0.17818935
0.19853626 0.12643336 0.07489224 -0.2582157 -0.16369656 0.06168077 0.10479146 -0.17583132
0.27362725 0.2710017 0.037117578 0.28710693 0.16638629 -0.26331723 0.25956973 -0.23750758
-0.105627574 0.20049824 0.044833772 -0.08887652 -0.07128277 -0.08462987 -0.028244076 0.0020575412
-0.07869841 0.0040238365 0.2708545 0.2953729 0.21402414 -0.18349878 -0.1734544 0.14776176
-0.088570885 0.118349105 -0.11620404 -0.14989902 -0.011807964 0.005180445 -0.1523742 -0.090165876
0.16316926 0.087415665 -0.20903036 0.09884152 -0.00030293973 -0.13705601 -0.10041873 -0.06867349
0.16325304 -0.010595744 0.028264215 -0.2866146 -0.015928788 -0.18225816 0.070042424 -0.14970294
-0.23474641 -0.23386246 0.20995285 0.31267604 -0.15360299 0.04039735 -0.11632318 -0.13547117
0.07942056 -0.12964322 -0.07004373 -0.070245884 0.09268383 -0.12363612 0.08558146 0.07573359
0.12138746 0.03334968 -0.52671856 -0.05185401 -0.11488321 -0.07649048 -0.24957864 0.16718484
-0.09678201 -0.057092406 -0.116151586 -0.106800094 -0.03592299 -0.1317108 -0.09732406 -0.14180401
0.019955538 0.10753017 -0.017488277 -0.15896168 -0.17414567 -0.13478038 -0.20466201 0.035694316
0.14475718 -0.2964075 -0.00087804435 0.093534715 0.0049787676 0.11239071 -0.17427358 -0.021278225
0.009103139 -0.20000364 -0.14302364 0.06656999 -0.072957516 -0.11020996 0.0006810589 0.005526065
-0.16457169 0.06766561 -0.091386065 -0.10826444 -0.1162655 -0.011445687 -0.109735616 0.14949279
0.035059534 0.12722877 -0.0724533 -0.117628545 -0.14640726 -0.006766807 -0.04550482 -0.08648296
-0.0004508789 0.07390888 0.029611407 0.0942757 -0.019153556 -0.07877605 0.024731256 -0.08260897
0.03342953 0.0010461506 0.113965936 -0.044427972 0.2875987 -0.083444715 0.115202494 0.105557814
0.026497241 -0.22505364 -0.20241234 -0.17468496 -0.26662233 -0.02504634 0.23693128 0.009130133
-0.049764205 -0.16842832 -0.16183703 0.0076626823 -0.038210537 -0.3140134 -0.07463111 0.09833854
-0.21207811 0.24121124 -0.13457122 -0.092896335 -0.23976356 -0.09213433 -0.07693163 0.062387314
-0.11140657 -0.24354304 0.22051999 0.12048231 0.07116881 -0.1140511 0.20965183 0.13517427
-0.07262678 -0.0819918 -0.007245012 0.0634207 0.14392577 0.08476407 0.18602602 -0.14026678
-0.19229187 -0.04552471 -0.07867127 -0.29106224 -0.035080656 0.07504989 -0.20444064 -0.07590119
-0.11320397 -0.19154608 -0.08618864 -0.06882333 -0.015245753 0.34539393 0.25014836 -0.27331263
-0.17776607 -0.25027734 -0.1151072 0.1723952 0.17601609 -0.20722511 -0.14521912 -0.19960725
0.0018021624 0.14402477 -0.05463466 -0.06803942 -0.2380663 -0.0021184136 -0.20295304 -0.062796384

bias f4 [10]
00000000: 36f7 cd3e 64af 793e 4293 15bd ea93 f43d
00000010: f9c0 023d 70ba a43e 6389 e63d 4e3e 113e
00000020: a9cc cb3d 0326 b83e
0.4022767 0.24383312 -0.03651739 0.11942275 0.031922314 0.3217349 0.11256673 0.14183924
0.09951145 0.359665

weight f4 [2, 10]
00000000: 1103 bd3c 67f1 c8bd f33d 263e 309d 08be
00000010: b8c4 1b3d 1c25 06be 2900 853e a641 62be
00000020: 975f a03e 4cbe 3cbc 18d3 59be b7b2 d23d
00000030: 4025 2b3e 3931 81be e6fc 01be 4ff9 083e
00000040: 3c6c 633d 4c32 913d 3b5f 5b3e ea5f 903e
0.023072751 -0.09811669 0.16234569 -0.13341212 0.038029402 -0.13100094 0.25976685 -0.22095355
0.3132293 -0.01151998 -0.21271932 0.102879934 0.16713428 -0.25232866 -0.1269413 0.13376354
0.055523142 0.070896715 0.21423046 0.28198177

bias f4 [2]
00000000: b37c debd ea25 9ebe
-0.10863628 -0.308883
